Model/gesture_classifier.tflite (tflite, 146760 bytes, 12 tensors)

arith.constant f4 [128]
00000000: cd3a 02c0 ba04 2d3c b415 fabf 2d58 febf
00000010: d5fa d9bf 5334 ab3d a7ac 86bc 4071 2cbd
00000020: 96af 133d add6 17c0 f88c 08c0 b9d7 d3bf
00000030: 49dd 5fbf 8250 38be 0c9a 6cbf 4a85 c9bf
00000040: acd0 b73b 3a5a fbbf c4e0 9cbf d875 4f3c
00000050: 6cd2 273d 7439 0dbf 6836 2abf bf8c 893d
00000060: 946f 7bbd 17eb ffbf c665 d2bf 7eaa 08bf
00000070: fedd aabf 4862 403c 3972 25bf 6a8d cfbe
00000080: 6e34 b6bf 7640 0cbd 0bee 5cbf a10d a6bd
00000090: ecf2 e7bf 5466 88be df49 f5be b605 24bd
000000a0: d8b1 4cbf 853d 28be 83c7 99be 1365 f1bf
000000b0: 643f cfbf 9221 1fbd 8082 25c0 74b8 a6bf
000000c0: c714 b3bf 2ead a3bd aa97 97bf 3583 1cc0
000000d0: 28c8 55bf 3344 99bf 8ffb 81bd 368b 95bc
000000e0: eb1a 1cbf 2d1d d1bf eee3 d5bf 9fe0 0ec0
000000f0: 6c29 9dbd fa77 b43c e9ff 41bf 5c65 50bd
00000100: 206e f2bd bc80 02bf 079b 92be 210d b0bf
00000110: 19bc 1ec0 4fe0 91bd a10b f7bf 12a9 1239
00000120: 21ca 663d c09c 08c0 f7de 2ec0 08a3 8bbd
00000130: f0fc e4bd 25c4 833c b70d 38c0 c783 1ebd
00000140: 7260 b7bc 98a4 d1bf 2424 74bf 375b 24c0
00000150: 3f92 1dbe 92f8 29bd 285d 8e3d 4599 95bc
00000160: 1fd8 b63c 77af b4be 680c 92bf cc86 14bd
00000170: 8c9c b6bd 54ca 20c0 c9cb f8bf 6243 8cbd
00000180: 2569 bdbf 83e8 f3bc 1df0 9abf dd10 82bd
00000190: 3f79 31bf 339c edbf 759c 79be 6fc3 de3b
000001a0: ec58 abbb 2fd3 5bbf c645 6f3d 1431 6fbf
000001b0: 3025 46bf 42d9 cdbf d605 7bbf 3e91 33bd
000001c0: 1e5b 23bf 9972 53bd c28f 9dbf 7c3e 00bb
000001d0: 0290 1dc0 4206 1cbd f819 e1bd 31e6 5bbf
000001e0: 59c9 16c0 8fc9 51be 3dae eabd 857c 2fbb
000001f0: 3583 033d b67c 24bf dfcf 93be d27e 0cbe
-2.034839 0.010560209 -1.9537873 -1.9870659 -1.7029673 0.083595894 -0.016439749 -0.04210019
0.036056124 -2.3724778 -2.133604 -1.6550208 -0.8744703 -0.17999461 -0.92422557 -1.5743802
0.0056095924 -1.963691 -1.2256093 0.0126623735 0.04097216 -0.5516579 -0.6648927 0.06716298
-0.061385706 -1.9993619 -1.6437309 -0.5338515 -1.3348997 0.011742182 -0.64627415 -0.40537578
-1.423475 -0.034241162 -0.86300725 -0.08108068 -1.8121009 -0.2664057 -0.47907922 -0.04004451
-0.7995887 -0.16429718 -0.30035028 -1.885897 -1.619122 -0.038850375 -2.58609 -1.3025041
-1.3990716 -0.07992016 -1.1843159 -2.4455082 -0.8350854 -1.1973938 -0.06346809 -0.018254858
-0.60978574 -1.6337029 -1.6710184 -2.2324598 -0.07673916 0.022029866 -0.7578111 -0.050877914
-0.11837411 -0.50977683 -0.286339 -1.3754007 -2.4802306 -0.071228616 -1.9300424 0.00013986629
0.05634511 -2.1345673 -2.7323587 -0.06818205 -0.111810565 0.01608474 -2.875837 -0.03869989
-0.022384856 -1.6378355 -0.95367646 -2.5680673 -0.1538782 -0.04149682 0.06951362 -0.018261561
0.022319851 -0.3529012 -1.1410036 -0.036261365 -0.08916578 -2.5123491 -1.943719 -0.0684879
-1.4797713 -0.029773956 -1.2104527 -0.06350873 -0.6932563 -1.8563293 -0.2437609 0.0067982
-0.005229106 -0.85869116 0.05841615 -0.9343426 -0.77400494 -1.6081927 -0.9805578 -0.043839686
-0.6381091 -0.05162296 -1.2309496 -0.0019568494 -2.4619145 -0.038091905 -0.10991281 -0.8589812
-2.3560393 -0.20487045 -0.114590146 -0.00267771 0.03210755 -0.64252794 -0.2886953 -0.13720253

arith.constant1 f4 [128]
00000000: 57c5 9240 93e9 f740 7fed 5e40 de9c 5d40
00000010: 0ae6 1440 e89c ee40 2ce4 ed40 0b93 fc40
00000020: e051 ee40 98b4 4740 5717 5740 eb8d 7640
00000030: 2fd6 9a40 93e8 ba40 596d c040 55cd 7440
00000040: b150 f040 d7d9 2b40 5eb0 3040 2524 f140
00000050: 1c61 ee40 6d83 ab40 5d32 c440 b150 f040
00000060: e5fd f040 1326 6640 932d 8b40 362e cc40
00000070: e7c7 9e40 3a44 ee40 5510 a740 0f9d db40
00000080: bf54 7740 f87f f040 48bd 6640 25cf ee40
00000090: 3efb 2d40 70f2 e040 d80f c040 0bee f140
000000a0: 44df bf40 5913 d940 e185 cd40 e965 6040
000000b0: 9811 a040 a0bc ee40 8e54 3e40 04f7 9340
000000c0: 897d 9740 9672 ed40 1d5c d640 b2c4 7d40
000000d0: 497f 8540 2099 c140 a713 e940 b150 f040
000000e0: 5aab aa40 0afb 2840 fef7 9f40 bd1e 7040
000000f0: f204 ef40 7e64 f140 fe95 8140 feb7 ee40
00000100: 09ad f140 3295 e840 df93 df40 fb60 6c40
00000110: 5ea1 5f40 3821 f040 35f8 9c40 25b2 ef40
00000120: 2b6c ee40 6d26 5d40 d024 5240 6292 0541
00000130: fd27 d940 94c4 ee40 51d4 2d40 8b39 ef40
00000140: 1c92 ee40 4cd7 9540 5483 b140 5407 3a40
00000150: 2cc9 e640 1658 eb40 5fd7 ef40 f4c9 ef40
00000160: f892 0041 4c54 d240 4f0a d240 f259 ed40
00000170: 2e1d e740 9e07 3d40 7873 a740 3b5a ef40
00000180: 6a59 8340 15ee e740 c01b a540 6d2f ef40
00000190: 0af6 9040 10ec 8040 c865 dd40 37c7 f040
000001a0: 5418 f140 191d a440 ed6f ee40 9c3a 4340
000001b0: 46d7 8040 c7bd 8140 ab4a 6240 8f38 ec40
000001c0: a7fd c040 b150 f040 4c3d a540 0709 ee40
000001d0: 8ea1 6840 8f4a f240 19ec d740 07d7 ab40
000001e0: e451 4540 a7bb d540 fa4d d940 9690 ee40
000001f0: 63eb ef40 fb29 9f40 a218 db40 c788 e240
4.5865893 7.7472625 3.4832456 3.4626994 2.3265405 7.4566536 7.434103 7.8929496
7.4474945 3.1203976 3.3607996 3.852412 4.8386455 5.8408904 6.013348 3.8250325
7.50985 2.685171 2.7607646 7.535662 7.449354 5.359793 6.131148 7.50985
7.530993 3.5960739 4.3493133 6.380641 4.961902 7.4458284 5.2207437 6.862922
3.8645475 7.515621 3.6053028 7.462786 2.7184596 7.0295944 6.001934 7.560308
5.996004 6.783612 6.4225926 3.50622 5.0021477 7.4605255 2.9739108 4.6239033
4.734074 7.4202375 6.6987443 3.9651303 4.1717877 6.049942 7.283649 7.50985
5.333417 2.6403222 4.9990225 3.751876 7.4693537 7.543517 4.0495596 7.45996
7.5523725 7.2682123 6.9868007 3.6934192 3.494224 7.504055 4.9052987 7.490496
7.450704 3.4554703 3.2834969 8.348238 6.7861314 7.4614964 2.7160838 7.4757743
7.4553356 4.6825314 5.5472813 2.9066973 7.212057 7.3545027 7.4950404 7.4934025
8.035881 6.57279 6.5637584 7.4172297 7.222312 2.95359 5.2328453 7.4797645
4.104665 7.2478127 5.1596375 7.4745393 4.530034 4.028816 6.9186745 7.524318
7.5342197 5.128552 7.451163 3.0504522 4.0262785 4.054416 3.5358074 7.381904
6.0309634 7.50985 5.1637325 7.438602 3.6348605 7.5716014 6.7475705 5.3699985
3.0831232 6.679157 6.7907686 7.4551497 7.4974837 4.9738746 6.846757 7.0791965

arith.constant2 f4 [128]
00000000: ce9d 3dbf 084c 33bf 48f2 16bf 89fc 48bf
00000010: d3c9 28bf f0f3 0cbf 22f3 22bf 5304 2ebf
00000020: 8e08 12bf 7137 28bf 1d4e 4fbf 715b 23bf
00000030: 7ec2 15bf 181c 42bf d684 2fbf b3da 24bf
00000040: 8426 30bf 7e93 2fbf 77fc 1bbf 9eb4 4dbf
00000050: 90c8 3abf 32d8 34bf cf7b 27bf 1456 27bf
00000060: 30d4 3ebf 7835 2fbf f967 34bf 570e 1abf
00000070: e709 28bf bc8b 26bf 7e5d 3cbf b76e 3ebf
00000080: ce06 28bf 7f45 2abf baf2 2abf 36f8 35bf
00000090: 717c 2cbf 760d 2abf b39d 39bf 8a23 44bf
000000a0: 4273 cebe bf75 3dbf 8a23 39bf 7a2b 28bf
000000b0: 8d80 40bf d7a0 05bf 7149 18bf cacb 2abf
000000c0: 2fc6 21bf e067 37bf 1ca6 21bf 3e25 08bf
000000d0: 9384 5abf 25d1 29bf 4a07 27bf 3d00 29bf
000000e0: 718f 1dbf de1c 73bf f60b 38bf 7758 33bf
000000f0: bbb3 40bf 61e9 2fbf 0b43 2dbf 92df 21bf
00000100: 8ce7 51bf a460 49bf bbb8 32bf a634 15bf
00000110: dd73 29bf 14fb 34bf 8130 3abf 5785 40bf
00000120: b269 15bf 6172 31bf 015e 18bf 560d 10bf
00000130: 67bd 3ebf a4ae 15bf 4d9f 0dbf 7e09 32bf
00000140: 6c95 35bf a948 4dbf 6af1 12bf fba8 1dbf
00000150: 4e4a 24bf c82a 2dbf aefc 3fbf 51fb 2abf
00000160: fe94 1fbf 8b89 32bf 56c4 32bf e3b1 10bf
00000170: f0cf 38bf 8f2d 2bbf a8a7 10bf c3f4 3cbf
00000180: dd69 2dbf 33f2 2bbf 3b1f 3dbf 6358 32bf
00000190: 5474 24bf e831 1dbf 868d 28bf f60b 57bf
000001a0: 436e f1be a251 0dbf 2630 0abf f9fa 17bf
000001b0: dc57 19bf 1898 08bf 68df 0cbf 7294 26bf
000001c0: da9e f1be e507 16bf d76a 39bf 7763 0ebf
000001d0: 014a 3fbf 1131 20bf 3554 3ebf f5f9 2cbf
000001e0: d447 13bf 9099 1dbf 5ead 0abf 325e 23bf
000001f0: 7f47 3fbf 345e 18bf b4ce 33bf 312b 3fbf
-0.74068916 -0.7003789 -0.5896344 -0.7851034 -0.6593296 -0.5505972 -0.6365224 -0.6797535
-0.57044303 -0.65709597 -0.80978566 -0.63811404 -0.58499897 -0.7582412 -0.68562067 -0.6439621
-0.6880877 -0.6858443 -0.60932106 -0.80353725 -0.72962284 -0.7064239 -0.6542329 -0.6536572
-0.7454252 -0.6844096 -0.7047115 -0.6017813 -0.6564011 -0.6505697 -0.7358016 -0.7438769
-0.65635383 -0.6651229 -0.6677662 -0.71081865 -0.6737738 -0.6642679 -0.72506255 -0.7661673
-0.4032231 -0.7400779 -0.72319853 -0.6569134 -0.7519615 -0.5219855 -0.5948706 -0.6671721
-0.6319303 -0.71642876 -0.6314409 -0.5318183 -0.8535854 -0.66334754 -0.652455 -0.6601599
-0.61547 -0.9496592 -0.7189325 -0.7005686 -0.75274247 -0.6871548 -0.67680424 -0.63231766
-0.8199394 -0.78663087 -0.69813126 -0.5828346 -0.6619242 -0.70695615 -0.7273026 -0.7520346
-0.58364403 -0.69315153 -0.5951844 -0.5627035 -0.74507755 -0.58469605 -0.553212 -0.69545734
-0.70931125 -0.80188996 -0.5739962 -0.6158597 -0.6417588 -0.67643404 -0.74994934 -0.6678973
-0.6233672 -0.69741124 -0.69830835 -0.56521434 -0.7219229 -0.6686639 -0.56505823 -0.73810977
-0.6773966 -0.6716644 -0.7387578 -0.6966612 -0.6424 -0.61404276 -0.6584095 -0.84002626
-0.47154436 -0.55202687 -0.5397972 -0.5936733 -0.5989969 -0.53357077 -0.5502839 -0.6507026
-0.47191507 -0.58605796 -0.7242865 -0.5562052 -0.74722296 -0.6257487 -0.7434724 -0.67568904
-0.57531476 -0.6156244 -0.5417079 -0.63815606 -0.7471847 -0.5951874 -0.7023728 -0.7467528

arith.constant3 f4 [128]
00000000: 4c62 ba3f d1ee f73f 2800 c43f a120 aa3f
00000010: b724 d33f e958 d63f d4b6 d93f 2b41 c83f
00000020: 7875 823f e934 d13f b9a1 0d40 95fb ad3f
00000030: a195 d23f 03ce cf3f c5e3 aa3f 0071 dc3f
00000040: e4aa c93f 93cc c43f 065d ef3f 87e2 b93f
00000050: 0d5e cc3f d8de d33f 44c3 bd3f 67b4 de3f
00000060: 2411 de3f 8f06 db3f 0ad2 ed3f 99ec ba3f
00000070: 74d6 1340 5d95 e43f 5d38 b03f 69ff b73f
00000080: 59d8 da3f 9c01 d63f 9672 e83f 28b2 c43f
00000090: 2cdc 9f3f 0e92 cf3f 235b ac3f 85f0 0340
000000a0: d96c e33f 1109 d13f 855e bc3f 4440 f03f
000000b0: 270e d63f 512e c73f bfc9 f73f 5d90 973f
000000c0: 1d0c cf3f 761c 0140 8bbb d73f a2e8 eb3f
000000d0: c553 c83f ad75 af3f e87c f43f f21b 0440
000000e0: 8481 c83f c5f2 0c40 0208 af3f 3848 d03f
000000f0: b218 d23f c89a c43f adde 0040 7e68 bc3f
00000100: 3ca9 fb3f 5bea ba3f 0ec9 f43f c932 f03f
00000110: 1e63 9e3f 7061 0540 c4df a73f 2bb7 b23f
00000120: 0d56 d33f 97d4 9f3f 5381 f23f 4227 d43f
00000130: 2cdc c03f 2f64 d03f fd9f a43f 7528 f83f
00000140: cc90 de3f b0a0 bd3f 7fb1 fe3f 7495 da3f
00000150: 5133 aa3f f07e c73f 5e2c c93f f96b 9c3f
00000160: e453 f23f 38c2 0240 3a63 e93f 87c0 0a40
00000170: fbc5 ba3f 2927 bb3f af08 0e40 d8ac 0040
00000180: 4865 ad3f d94d ea3f 76b9 0040 9883 b23f
00000190: 5113 ab3f 10ea 903f 31d5 e13f bcbd f93f
000001a0: 0109 c33f 3981 c23f 20c7 bc3f a7f8 cb3f
000001b0: 84b8 d83f 384b de3f 6e46 c93f 8e2c e83f
000001c0: 39ef f13f 5772 ba3f 774c ca3f 9e95 c23f
000001d0: 6499 9e3f e77b bf3f 79bc ed3f 4c22 963f
000001e0: 2bb9 f13f d8bd db3f 84e2 d43f f677 e43f
000001f0: 5c09 a33f e45b b03f 9dfa 603f c76f d53f
1.4561248 1.9369756 1.5312548 1.3291208 1.649558 1.6745883 1.700892 1.5644888
1.0192099 1.6344272 2.2129958 1.3592402 1.6451913 1.6234745 1.335076 1.7221985
1.5755277 1.5374931 1.8700264 1.4522256 1.5966202 1.6552382 1.4825215 1.7398804
1.7348981 1.7111377 1.8579724 1.4603454 2.3099642 1.7858082 1.3767201 1.437482
1.7097274 1.6719241 1.8159969 1.5366869 1.2489066 1.6216447 1.3465313 2.0615551
1.7767593 1.6330892 1.4716345 1.8769612 1.6723069 1.556101 1.9358443 1.1840931
1.6175572 2.017362 1.6854109 1.8430369 1.5650564 1.3707787 1.9100618 2.0642056
1.5664525 2.2023175 1.3674319 1.627204 1.6413786 1.5359735 2.013591 1.4719388
1.9661021 1.460277 1.9123857 1.8765498 1.2373998 2.084072 1.3115163 1.3962148
1.6510636 1.2486752 1.8945717 1.657448 1.5067191 1.6280574 1.2861325 1.9387347
1.7387938 1.4814663 1.9897918 1.707686 1.329691 1.5585613 1.5716665 1.2220451
1.8931851 2.0431042 1.8233407 2.168001 1.4591669 1.4621326 2.21928 2.0105495
1.3546534 1.8305007 2.0113196 1.3946409 1.336527 1.132143 1.7643186 1.9511027
1.5237123 1.5195686 1.4748268 1.5935258 1.693131 1.7366705 1.5724618 1.8138597
1.890113 1.4566144 1.5804585 1.520191 1.2390561 1.4959687 1.8573142 1.1729217
1.8884634 1.7167311 1.6631627 1.7849109 1.2737231 1.3778043 0.87882406 1.6674737

arith.constant6 f4 [28]
00000000: c6eb c8bb 0540 8bbc 8aa9 90bc f3dd f63c
00000010: add8 da3a ab2e 8e3c b2d9 8bbc 8b6c 43bc
00000020: 95e9 183c ee86 89bc 2738 903b 3bef 8a3c
00000030: 7eda aabb ac2a 763c d46e 583b 1b2d 99bc
00000040: b4b5 84bc f117 bf3b 834a 653c 96f8 3d3b
00000050: c184 a6b9 160f 18bd 5285 d7bc 4d1e c43a
00000060: c30c 1e3c 6c13 2d3c 3290 bbbb d9b8 6fbc
-0.006131622 -0.0169983 -0.017658968 0.03013513 0.0016696654 0.017356237 -0.017071579 -0.011927734
0.009333034 -0.016787972 0.004401225 0.016959777 -0.0052140346 0.015024822 0.0033025043 -0.018698266
-0.016199924 0.0058317115 0.013994816 0.002898728 -0.00031760897 -0.037123762 -0.02630869 0.0014962644
0.009646597 0.010563713 -0.0057239765 -0.014631473

arith.constant7 f4 [256]
00000000: b36c 9e3b d809 873c 7bf5 513c 6949 f73c
00000010: 0c0e 9e3b 40cb 723c 96a1 62bc a649 a53a
00000020: 0ba1 01bc be78 8d3b 3786 65bc 2efc bf3c
00000030: 9a21 8e3c 64b8 84bc c9c5 a53c 8b52 993c
00000040: 8b72 163d 3944 d73a 27c2 573c 8611 843a
00000050: b276 cf3c a2e2 0d3d 257e 1a3c 496c 36bc
00000060: 5eaa 4a3c 01a7 3e3d 1c62 583c f634 2a3c
00000070: 290f fd3a 1ad5 4e3c 818c b93b ce79 733d
00000080: 17a6 5e3c 32c1 b539 a69c afba 0e3b cabb
00000090: 8774 cf3c ccbf 443d af90 c63a b6c4 97bc
000000a0: 2820 083d 879d 933c 1523 1d3d 880f 123c
000000b0: 96d1 6d3c a11d af3b bcd9 123d 871a f8bb
000000c0: 0a95 0abd 6f59 e43b 5ebd 953c bdfa 533c
000000d0: e301 443c 714f 723c 195e 023d cb86 0d3d
000000e0: e3df 0d3d 1abf 40bb e2c0 4f3b 1643 573c
000000f0: 932d ff3b a3c4 46bc 737e 2fbc f20b 753b
00000100: 227b 96bc 9f87 b33c ff27 133d 3e00 d33b
00000110: 5749 3ebc 5e97 35ba 308c d53c 84e2 efb9
00000120: ecfc 073c 1726 623c cdb0 5d3b e171 f53c
00000130: bd14 773c bfbe a33c 536e 3c3d 0e18 213d
00000140: 5940 fa3b f86b ebbc 6473 243c d4bf 7cbb
00000150: 140a 813c 0d4f 943a aa09 2a3c 37ac 2e3c
00000160: 142e 8fb9 5713 fabb 6e32 e43c fd4c 913c
00000170: 6ed3 25bb c02e 233c b38d 223c 6062 87bc
00000180: 79a2 f93c 3ae0 403d 1ffb 7f3a 9aab 54ba
00000190: d216 4f3b 93f4 a8bb f13b 703c 2ab5 a13c
000001a0: 2d58 e7bc d8bf 093b e7a2 5abc 8795 353c
000001b0: 1945 ebbc 02e2 99bb 8299 e23c 8bf2 7dbc
000001c0: ae16 833c 84e9 133d 906c ef3b 346e d13c
000001d0: 7130 733b f2c2 d63c e43f 173d cc06 53bc
000001e0: 8196 123d fe81 9b3c a373 87bc 846a 5f3c
000001f0: d409 de3b 938f 4c3d bea6 0c3d cd83 a3bc
00000200: 9e4d 043a e2d6 c5bc 7c36 ad3b a5fb 8b3a
00000210: cc1a 66bc a1c0 c83b bfd6 a6bc 838e 51bc
00000220: 3a81 f43c d022 1b3c 8ec9 7abc 104a abb9
00000230: b36f 143d 2fa1 87bb b6a6 c5bc 9f70 a23c
00000240: 82ac 093d dac7 e33c 9187 bebc 3062 65bb
00000250: d1cd 23bd 1f5f 183d adec d7b9 6dc7 bc3c
00000260: 8ea3 2ebc 80ea 32bc 6b78 cbba 951a 393d
00000270: 2489 17bd d9bc 06bc ec8b fd3c 1889 7d3c
00000280: 2ae1 3abc a52e 2cbc bf6c cfbc 92d5 8fbb
00000290: 38b2 263c 2deb f5bc 8a44 1b3c 794d 093c
000002a0: 1074 b2bc 04bb 553c 5aaf 31bc f9c2 7b3b
000002b0: 4855 21bd d00d aebc fb84 d93b a4a2 243c
000002c0: 9eca 8abc 2773 0a3d f8a9 5d3c d0b4 8d3c
000002d0: 6e53 ff3c 86c2 7a3c 4392 93bb db56 c33b
000002e0: 17b1 0c3d a466 5c3d 000f b73b ceac 873c
000002f0: 5742 67bb bc54 193a b757 813c f357 50bc
00000300: ece7 b13c 529f cbbc 5a75 353d 66a0 a53b
00000310: 94dc f8bc 568a 8f3c 744a 2d3d ce4f 3e3d
00000320: 262c cabb 3c47 b93c 322d 8e3c dc45 b9bc
00000330: 082c 3f3d 0a97 2abb a3ca 9fbb 4846 a5bc
00000340: c22e 53bc 1c5d 95bc dfcb e33c d436 663c
00000350: 4a3a 65bb dc36 b93c a0da 143c 5b3f 793c
00000360: b9c8 ac3b ed47 a23c b953 933d 4634 693a
00000370: b420 f03b ed0c 863c 9a91 623c f010 003d
00000380: d258 743c 178b 253c 0e3a 573d f81d 803c
00000390: 9ce8 693b 056b 9db9 158e 723c f748 563c
000003a0: c591 47bc 7c77 f03a 2c13 f5bc 47e8 553c
000003b0: 6d66 ed3c e95c 75bc a3c2 2b3d 41f7 8c3c
000003c0: 9a3d dc3c a330 26bc 99ef c73c 8128 d2bb
000003d0: f414 993b c4c2 53bc eba7 e23c cea3 ba3c
000003e0: b04c 933d 2a05 323c f1e6 9e3c b486 233d
000003f0: 4cc5 1ebc 36ae 6fbb a095 423c ad88 a3bb
0.0048347353 0.016484186 0.012814875 0.030186372 0.004823452 0.014818966 -0.01383247 0.001261045
-0.007911931 0.004317372 -0.01400905 0.023435678 0.017350007 -0.016201206 0.020235913 0.018716117
0.03673033 0.001642353 0.013168848 0.0010076023 0.025325153 0.034639962 0.009429489 -0.011134216
0.01236972 0.046545986 0.013206985 0.010388603 0.0019306886 0.01262405 0.0056625013 0.059442334
0.013589404 0.00034666952 -0.0013398125 -0.0061715906 0.02532412 0.048034474 0.001514932 -0.018526416
0.03323379 0.01801945 0.038363535 0.008914836 0.014515301 0.005344108 0.03585218 -0.0075715217
-0.03383354 0.006968669 0.018278774 0.012938199 0.01196334 0.014789448 0.03182802 0.034552377
0.034637343 -0.002941078 0.003170066 0.013138553 0.0077874153 -0.012131843 -0.0107113 0.0037391153
-0.018369261 0.021915255 0.035926815 0.006439238 -0.011614165 -0.00069271575 0.026067823 -0.000457544
0.008300047 0.013803027 0.0033827305 0.029961528 0.015080628 0.019988416 0.04600365 0.03932958
0.0076370654 -0.028738007 0.010037277 -0.0038566487 0.015751876 0.0011315063 0.010378281 0.010661176
-0.00027309416 -0.0076317 0.027856078 0.017736906 -0.0025303024 0.009959877 0.009921479 -0.016526401
0.03047298 0.04708884 0.0009764898 -0.0008112729 0.0031599295 -0.0051561086 0.014662729 0.019739706
-0.028240288 0.0021018889 -0.013344503 0.011083013 -0.028719472 -0.0046961317 0.027661089 -0.015499721
0.016002025 0.03611137 0.007306643 0.025565244 0.003710773 0.026216004 0.036926165 -0.0128800385
0.035788063 0.018982884 -0.016534632 0.013636235 0.006776074 0.04994161 0.034338705 -0.019960308
0.0005046966 -0.024150316 0.005286036 0.0010679854 -0.014044475 0.006126479 -0.02036607 -0.012790325
0.029846776 0.009468749 -0.015306843 -0.00032670842 0.036239337 -0.0041390876 -0.024127346 0.019829093
0.033611782 0.027805258 -0.023258002 -0.0035001151 -0.039991204 0.03720009 -0.00041184333 0.023044312
-0.010659112 -0.010920167 -0.0015523558 0.045191366 -0.036996022 -0.008223736 0.030950509 0.01547458
-0.011406222 -0.010509168 -0.025320409 -0.0043894732 0.010174327 -0.030019367 0.00947679 0.008380287
-0.021783859 0.013045076 -0.01084503 0.0038415773 -0.03938797 -0.02124682 0.006638167 0.010048542
-0.016942319 0.033801224 0.013529293 0.017298132 0.031167712 0.015305167 -0.0045035197 0.0059612817
0.034348574 0.053808823 0.005586505 0.016561892 -0.0035287344 0.0005849113 0.015788896 -0.012716281
0.021717034 -0.024856243 0.04430137 0.0050545214 -0.030378617 0.017522018 0.042307332 0.046462826
-0.0061698137 0.022616975 0.017355535 -0.02261632 0.04667285 -0.0026029968 -0.004876451 -0.020175114
-0.012889566 -0.018232875 0.027807174 0.014051158 -0.003497737 0.022609167 0.009085327 0.015212859
0.0052729514 0.019809688 0.07193703 0.0008896034 0.0073281173 0.016363585 0.013828659 0.031266153
0.014913755 0.010103962 0.0525456 0.01563929 0.0035691625 -0.0003002511 0.014804383 0.01307892
-0.01218075 0.0018346156 -0.029916368 0.0130558675 0.028979504 -0.014975765 0.041933667 0.017207744
0.026884843 -0.010143432 0.024406241 -0.00641352 0.0046716873 -0.012924854 0.02766796 0.022783186
0.07192361 0.010865489 0.01939723 0.039923385 -0.009690594 -0.0036572344 0.011876494 -0.0049906583

arith.constant8 f4 [128]
00000000: 767d 0a3d 52fd a5b9 d726 15bd dc31 b13c
00000010: cd76 debc 627e 04bd 84d4 90bc 3649 84bc
00000020: 3390 a4bc ed8e f5bc 64bd 313c eef6 91bc
00000030: 1c38 aabc 902a b73c ee62 c9bc 65b2 673c
00000040: ea94 2c3c 4507 973c 39d4 6ebd ad8f ef3c
00000050: 8393 d1bb 3119 083d 4f65 e13b 966b a8bc
00000060: 82d6 f3b9 97de 23bc 803b 0bbc 7583 63bd
00000070: 32e8 0abd 02aa 3bbc 8398 abbc ac38 3bba
00000080: 708f 8b3c c138 f8bc caeb 85bc a497 a83c
00000090: 4555 3abb 0a50 92bc f861 293b 20b2 683b
000000a0: 6061 76bd 30d4 c53b 87b1 ff3b 4a3a 3dbd
000000b0: b203 ec3c 8fd8 94bc 45fd 42bd 54fd 24bc
000000c0: cf51 0cbd 0ef3 953c 1388 0b3c f2f6 05bd
000000d0: 6928 7b3d a735 70bc c06a 82bd c525 07bc
000000e0: e0d4 973b 728b 813d 42b1 3abc 606f 1d3c
000000f0: e30a f2bb 723f 81bc 0965 0cbd 2bd7 063c
00000100: dfa6 fa3b fd32 873c 04aa 283c 79aa 8abc
00000110: 5aa8 bcbc 5ab2 823c 1dbe c9bb 3e4d 9b3c
00000120: 83cf 53bc 5a81 b33b b662 bcbb c182 e2bc
00000130: 1d12 35bc ce4e 95bc 38c0 2bbc 1b37 ab3b
00000140: 5a99 3e3c ddc9 b53c 71b0 b7bc 34e1 90bc
00000150: 8d02 27bc a41a c5bb c813 f03b 959f 083b
00000160: 5b97 49bd c19a 9a39 2483 283c 9399 abbc
00000170: dc56 853c 93b4 49bb 88b8 13bd 25ca 993c
00000180: af4c 2c3d 9498 edbc d0ca d13b c2ad 8abb
00000190: 7512 783c 522e ddbc a315 b0bc 96ec ae3c
000001a0: 5872 32bd bbf9 56bb 27a0 67bc 2ff9 41bb
000001b0: 04b2 77bd 3601 34bd 59df 8abc 8e63 1fbd
000001c0: 6ad5 f2bc 06b8 03bc 20f2 473c b9c1 d3bc
000001d0: d50c 1bbc 9e79 81bc e96e 5d3c 3f0f 99bb
000001e0: 7718 cbbc 1f0b 24bd 120a 74bc 8655 b2ba
000001f0: 2fc8 ad3c 319d 0fbd 86fb 3a3c 8cb6 143c
0.033811055 -0.0003165999 -0.036413994 0.02163022 -0.027156258 -0.03234709 -0.01767946 -0.016148191
-0.02008829 -0.029975379 0.010848377 -0.01781794 -0.020778708 0.022359163 -0.024583306 0.014141654
0.010533551 0.018436084 -0.05830786 0.029243315 -0.0063957586 0.03322715 0.006878532 -0.020559113
-0.00046508393 -0.0100018 -0.008498073 -0.05554529 -0.033912845 -0.011454107 -0.020946747 -0.00071419287
0.01703617 -0.0303005 -0.016347785 0.02058012 -0.0028432172 -0.017860431 0.0025845747 0.0035506561
-0.060151458 0.0060372576 0.0078031453 -0.046198167 0.028810356 -0.01816967 -0.047604818 -0.010070164
-0.034257706 0.018304374 0.008516329 -0.03270621 0.061317835 -0.014661229 -0.06368017 -0.008248751
0.004633531 0.06325425 -0.011394801 0.009609073 -0.0073865517 -0.015777323 -0.034276042 0.008230011
0.007649287 0.016503805 0.010294441 -0.01692699 -0.023029495 0.015954185 -0.0061566965 0.01895773
-0.012927893 0.0054780664 -0.005749072 -0.027650239 -0.011051682 -0.018226054 -0.01048284 0.005225075
0.011633242 0.022190982 -0.022423001 -0.01768551 -0.010193479 -0.0060151387 0.007326577 0.0020847071
-0.04921661 0.0002948847 0.010285173 -0.020947253 0.01627677 -0.0030777797 -0.036064655 0.018773148
0.04206532 -0.029003419 0.006402351 -0.0042321393 0.015141119 -0.026999626 -0.021494692 0.021353047
-0.043566078 -0.003280266 -0.014137304 -0.0029597988 -0.060472503 -0.043946467 -0.016952204 -0.038913302
-0.02964278 -0.00803948 0.012203723 -0.02584921 -0.009463509 -0.015805062 0.013515213 -0.004671007
-0.02479194 -0.04004967 -0.014894979 -0.001360581 0.021213619 -0.03506202 0.011412507 0.009076726

arith.constant9 f4 [128]
00000000: 8096 13bb c326 903b 44c5 a03c f3da d93c
00000010: 9e51 7c3c 90e1 eebb 4557 c5b8 2d33 9dbb
00000020: 280f 1dbc 940a 9f3b 0dec 343c 3152 8d3c
00000030: 3c63 223b 4cb8 b2bb 28e9 b63c e2ed 9fbb
00000040: 0000 0000 948f d93c 52bd c5ba 49e2 18bb
00000050: f820 d0bb 2471 46bc 2de6 e3bc 0000 0000
00000060: ae44 d2ba f15a b13c 52e1 7a3b f1ac 55bd
00000070: 37e6 753c a0eb 4fbc d43d 083c d010 c33c
00000080: 2943 bd3c 2ed8 e5bb 0cda cbbb 3262 46bb
00000090: 94d8 0cba 6b56 023d aae6 e73c 2dc3 cfbb
000000a0: 3393 df3c 7472 e23b bb4b 37bb fed7 8abc
000000b0: 0e8f 26bc a951 e3bb d9fd 703c 88c6 473c
000000c0: 75f2 d2bc e698 8dbb 941e 213d 3ccb 943d
000000d0: 3d50 9abc 09a4 ab3c 74b4 1abc 0000 0000
000000e0: b74c 21ba fa0d ba3c 815d 853c f7c4 043a
000000f0: e4a0 c4bb cc38 21bc 7e93 f9bc ad01 d8bb
00000100: e263 8c3c 1041 023c 59a5 10bd c24f 5cbc
00000110: 83ac 873c 1819 86b9 e00f 8e3c fc3f 873a
00000120: 3b31 e9bb 08b7 c93b f7e5 a7bb 58af 053d
00000130: 9246 33bc 5944 07bc e070 253c 072d 79bb
00000140: 7309 c1bb d657 a13c 060d 3cbc 757e c83c
00000150: ebcb 9fbb 81cd ddb9 8600 abbb cb81 38bb
00000160: 8983 d23c 42c4 16bc 8250 393d e5ef 58bc
00000170: b0e1 44bc 4d0b 393c 7de6 cc3c 4e16 b4bb
00000180: b3d0 69bc 82c9 59bc accd 673b a81b 6c3b
00000190: c57f 153d 2d84 333d 74d7 39bc f0fd 8bbb
000001a0: 9424 f9bb 040b d73c f771 04bc 84f4 05bc
000001b0: 4bcf 8dbb a73c 863c 57a1 0abb 36aa a6bb
000001c0: cb27 873c 0000 0000 956a 0ebd 957d bfbb
000001d0: 1c4c 183d aa25 64bc ffd3 31bb 0ca9 703b
000001e0: e19a cdbb b542 78ba 940d a0bb 39bf f2bb
000001f0: 34d0 edbb f90c 5abc b5f6 003c 11e2 b039
-0.0022520125 0.004399152 0.019625314 0.026593661 0.015400318 -0.0072900727 -9.409947e-05 -0.0047973604
-0.009586133 0.004853556 0.011042607 0.017251106 0.0024778387 -0.005454099 0.022327974 -0.0048806528
0.0 0.026557721 -0.0015086329 -0.0023328236 -0.0063515864 -0.012111936 -0.027819717 0.0
-0.0016042197 0.02164981 0.0038281274 -0.052166883 0.015008501 -0.012690455 0.008315522 0.023811728
0.023103314 -0.007014296 -0.0062210616 -0.0030270931 -0.0005372849 0.031820696 0.028308231 -0.0063404054
0.02729187 0.0069106165 -0.0027968723 -0.016948696 -0.010165943 -0.006937225 0.0147089595 0.01219333
-0.025750378 -0.0043212054 0.039335802 0.072653264 -0.018837089 0.020952241 -0.009442437 0.0
-0.0006153094 0.022711743 0.016279938 0.00050647504 -0.006000625 -0.009840202 -0.030465838 -0.0065919966
0.017137472 0.007950082 -0.035313938 -0.01344675 0.016561752 -0.00025577168 0.017341554 0.0010318751
-0.0071164644 0.006155852 -0.0051238495 0.032637924 -0.010942118 -0.008256041 0.010097712 -0.0038021223
-0.005891019 0.019695204 -0.011477714 0.024474362 -0.004876604 -0.00042305517 -0.0052185683 -0.0028153535
0.025697486 -0.009202065 0.045242794 -0.013240789 -0.012016699 0.011294198 0.02501225 -0.005495823
-0.014270949 -0.013292672 0.0035370393 0.0036027227 0.036498804 0.043827225 -0.011342872 -0.004272215
-0.0076032374 0.02625037 -0.008083812 -0.008175973 -0.0043276898 0.016386343 -0.0021153295 -0.0050862087
0.016498467 0.0 -0.034769613 -0.005843828 0.03718196 -0.013924995 -0.0027134416 0.0036721854
-0.0062745665 -0.00094703893 -0.004884431 -0.0074080494 -0.0072574858 -0.013308757 0.00787132 0.00033737769

tfl.pseudo_qconst i1 [128, 1, 3, 128]
00000000: 244d ea03 c9f6 c31c 1155 09d3 c440 d5f7
00000010: 52f5 35d9 2f3b 2f6b 99ea 2d08 0144 f915
00000020: 14d3 cacb 55f7 7e04 d1fd 43f6 cd23 c5bf
00000030: adff a111 c9b5 b116 5136 e2e2 d532 1de9
00000040: b408 ff4e c5bd f714 e6f6 e9f8 f52a b307
00000050: 4133 f754 1244 4bb6 f54c dd3d 23f0 dc1a
00000060: 5002 3fe3 ff02 b3e5 ae29 fb45 fef5 3d1b
00000070: 2287 38f0 2edf 3c42 24f0 54b8 5a0c fd19
00000080: b329 db19 c4e5 4054 260d 0652 261b a10a
00000090: 3f5e d334 0446 3833 c931 d805 ac3a 0021
000000a0: 0ffa 25a3 124e 67cf 1b07 30c9 c79b 5134
000000b0: 0bb6 21d0 3211 d930 c4e9 28dd e2f7 c90c
000000c0: 17a2 4631 0b30 d8b9 2a22 c7a3 1648 e1e8
000000d0: 350d db4f e735 233d 4850 41fd 5031 fdbc
000000e0: ed2d ed35 40dd 0d2b 01f6 ce31 4a1d 463e
000000f0: 4a8f d7e8 2734 5cc1 1515 fa25 c6e0 0bec
36 77 -22 3 -55 -10 -61 28
17 85 9 -45 -60 64 -43 -9
82 -11 53 -39 47 59 47 107
-103 -22 45 8 1 68 -7 21
20 -45 -54 -53 85 -9 126 4
-47 -3 67 -10 -51 35 -59 -65
-83 -1 -95 17 -55 -75 -79 22
81 54 -30 -30 -43 50 29 -23
-76 8 -1 78 -59 -67 -9 20
-26 -10 -23 -8 -11 42 -77 7
65 51 -9 84 18 68 75 -74
-11 76 -35 61 35 -16 -36 26
80 2 63 -29 -1 2 -77 -27
-82 41 -5 69 -2 -11 61 27
34 -121 56 -16 46 -33 60 66
36 -16 84 -72 90 12 -3 25
-77 41 -37 25 -60 -27 64 84
38 13 6 82 38 27 -95 10
63 94 -45 52 4 70 56 51
-55 49 -40 5 -84 58 0 33
15 -6 37 -93 18 78 103 -49
27 7 48 -55 -57 -101 81 52
11 -74 33 -48 50 17 -39 48
-60 -23 40 -35 -30 -9 -55 12
23 -94 70 49 11 48 -40 -71
42 34 -57 -93 22 72 -31 -24
53 13 -37 79 -25 53 35 61
72 80 65 -3 80 49 -3 -68
-19 45 -19 53 64 -35 13 43
1 -10 -50 49 74 29 70 62
74 -113 -41 -24 39 52 92 -63
21 21 -6 37 -58 -32 11 -20

tfl.pseudo_qconst1 i1 [128, 1, 5, 63]
00000000: 4062 295f d3fa 2720 f7f1 e112 2c9c 1fee
00000010: 69b3 3a0b 0727 c2e2 0ad6 be16 4aef f4f2
00000020: d10c 12e6 ec16 35df 1934 f222 de36 b012
00000030: c5b9 f7e1 f2d8 0727 d2f0 2822 b222 f3fd
00000040: deaf 39e6 0a56 d7d5 5236 bc55 3bda 653f
00000050: a704 dbf0 27ac 122d f8de 4153 2b15 3c14
00000060: dec5 b4bf 4ef2 a62f 37d3 dbaf 47ba d636
00000070: 0a33 f3e5 18c7 9451 a713 c7aa fd25 405d
00000080: ccbf 1ce1 3011 95ec cd16 45bc 23e9 dbb4
00000090: d246 c5c1 063f c31a ce33 30f5 20d1 e1f3
000000a0: 092e 4fc2 e810 4cc7 afc8 ffa7 295a d41d
000000b0: 27a9 4825 fe07 f80e fbf2 4a4b 51bb d4e3
000000c0: 164f f23d 1d82 00e0 dd16 c2af d156 b233
000000d0: 47fe 60d9 9d17 51ad 2ed0 1827 29b9 dcc4
000000e0: c244 33f7 1426 dce9 bc30 f902 46ff 1f4e
000000f0: a8d8 1335 b1dd aecc eb35 a229 ad03 3e3d
64 98 41 95 -45 -6 39 32
-9 -15 -31 18 44 -100 31 -18
105 -77 58 11 7 39 -62 -30
10 -42 -66 22 74 -17 -12 -14
-47 12 18 -26 -20 22 53 -33
25 52 -14 34 -34 54 -80 18
-59 -71 -9 -31 -14 -40 7 39
-46 -16 40 34 -78 34 -13 -3
-34 -81 57 -26 10 86 -41 -43
82 54 -68 85 59 -38 101 63
-89 4 -37 -16 39 -84 18 45
-8 -34 65 83 43 21 60 20
-34 -59 -76 -65 78 -14 -90 47
55 -45 -37 -81 71 -70 -42 54
10 51 -13 -27 24 -57 -108 81
-89 19 -57 -86 -3 37 64 93
-52 -65 28 -31 48 17 -107 -20
-51 22 69 -68 35 -23 -37 -76
-46 70 -59 -63 6 63 -61 26
-50 51 48 -11 32 -47 -31 -13
9 46 79 -62 -24 16 76 -57
-81 -56 -1 -89 41 90 -44 29
39 -87 72 37 -2 7 -8 14
-5 -14 74 75 81 -69 -44 -29
22 79 -14 61 29 -126 0 -32
-35 22 -62 -81 -47 86 -78 51
71 -2 96 -39 -99 23 81 -83
46 -48 24 39 41 -71 -36 -60
-62 68 51 -9 20 38 -36 -23
-68 48 -7 2 70 -1 31 78
-88 -40 19 53 -79 -35 -82 -52
-21 53 -94 41 -83 3 62 61

tfl.pseudo_qconst2 i1 [28, 256]
00000000: f316 5322 1b48 3300 55e5 f156 c0c7 a1a5
00000010: 2218 dbe7 c9b5 a6f5 baf1 e3bb d137 d105
00000020: 021e f624 42c6 9f50 a638 b7db af92 c7e1
00000030: eaf3 01e0 d3d1 cc81 e9f9 e2cd d701 fa44
00000040: f8ed c2d7 15b0 22ff 1edf 21f7 5db1 f603
00000050: d83e c0d5 f02b aa9f 29ca 4abd 10d9 aef8
00000060: 2497 2c16 eb9a 9b41 b391 f2d2 1edf 18a2
00000070: 16e1 e82f 3cd5 eb35 e8ad dfff ee3d 06bc
00000080: 1bd4 183a 210f f528 0039 f1d7 abd3 dfc0
00000090: 2de9 3e50 69ac da9e 33df 2714 c6b7 07ac
000000a0: 9216 e69b 30b5 f100 41da 07f0 0ff5 9fda
000000b0: 4d3c 3933 f498 b029 f9a0 4955 44a7 97fc
000000c0: 0d09 db07 e702 44fe ce4c a82c c7f0 c031
000000d0: 4260 0f60 173f 30f3 b4b5 22fa d79b d130
000000e0: 5bf7 fcdf 0136 e02e ff2e f2be 462d c81f
000000f0: 059e f8b6 b729 1899 9b9f da4b ac09 cb15
-13 22 83 34 27 72 51 0
85 -27 -15 86 -64 -57 -95 -91
34 24 -37 -25 -55 -75 -90 -11
-70 -15 -29 -69 -47 55 -47 5
2 30 -10 36 66 -58 -97 80
-90 56 -73 -37 -81 -110 -57 -31
-22 -13 1 -32 -45 -47 -52 -127
-23 -7 -30 -51 -41 1 -6 68
-8 -19 -62 -41 21 -80 34 -1
30 -33 33 -9 93 -79 -10 3
-40 62 -64 -43 -16 43 -86 -97
41 -54 74 -67 16 -39 -82 -8
36 -105 44 22 -21 -102 -101 65
-77 -111 -14 -46 30 -33 24 -94
22 -31 -24 47 60 -43 -21 53
-24 -83 -33 -1 -18 61 6 -68
27 -44 24 58 33 15 -11 40
0 57 -15 -41 -85 -45 -33 -64
45 -23 62 80 105 -84 -38 -98
51 -33 39 20 -58 -73 7 -84
-110 22 -26 -101 48 -75 -15 0
65 -38 7 -16 15 -11 -97 -38
77 60 57 51 -12 -104 -80 41
-7 -96 73 85 68 -89 -105 -4
13 9 -37 7 -25 2 68 -2
-50 76 -88 44 -57 -16 -64 49
66 96 15 96 23 63 48 -13
-76 -75 34 -6 -41 -101 -47 48
91 -9 -4 -33 1 54 -32 46
-1 46 -14 -66 70 45 -56 31
5 -98 -8 -74 -73 41 24 -103
-101 -97 -38 75 -84 9 -53 21

tfl.pseudo_qconst3 i1 [256, 128]
00000000: 1196 37ee b81f dd2f 17ea c0eb 3240 0021
00000010: d523 c0cb c90b 5def 7fe2 4c07 feb2 1ea1
00000020: d094 ee20 64aa 5e3f 6337 d2ab 152d c8e0
00000030: 73a2 53d3 0ebf befb 3f9f c159 6332 d8d0
00000040: 2657 c232 3e0f c1b6 0f12 2fbf fdc3 58a2
00000050: 26c2 d8f1 f76f eae0 fc47 5e27 9d38 e53f
00000060: 60ed 0d04 02ce 6d62 1f0b 1fc5 3bb5 f1ca
00000070: 4a56 c596 bdeb f10d e83e 00a7 2aff ab2e
00000080: cc40 eb35 e0a2 3601 3ada afb3 1051 378e
00000090: 2839 d2ab ccd3 edcd f114 6450 e418 1c86
000000a0: 2b4c 44bf 0cfa 43e7 e165 a22f 9b46 624b
000000b0: e946 c229 4dad 4543 4763 28dd 73c6 c98f
000000c0: c6e2 1332 c4ed de98 0624 4135 82e5 3b90
000000d0: 2bbb 601f 62b3 0248 52f6 48db 9d37 59d4
000000e0: ec86 21bf 5d47 e415 a304 88d6 4ad0 e702
000000f0: af91 a615 5f81 bd84 8245 28df 317c c62b
17 -106 55 -18 -72 31 -35 47
23 -22 -64 -21 50 64 0 33
-43 35 -64 -53 -55 11 93 -17
127 -30 76 7 -2 -78 30 -95
-48 -108 -18 32 100 -86 94 63
99 55 -46 -85 21 45 -56 -32
115 -94 83 -45 14 -65 -66 -5
63 -97 -63 89 99 50 -40 -48
38 87 -62 50 62 15 -63 -74
15 18 47 -65 -3 -61 88 -94
38 -62 -40 -15 -9 111 -22 -32
-4 71 94 39 -99 56 -27 63
96 -19 13 4 2 -50 109 98
31 11 31 -59 59 -75 -15 -54
74 86 -59 -106 -67 -21 -15 13
-24 62 0 -89 42 -1 -85 46
-52 64 -21 53 -32 -94 54 1
58 -38 -81 -77 16 81 55 -114
40 57 -46 -85 -52 -45 -19 -51
-15 20 100 80 -28 24 28 -122
43 76 68 -65 12 -6 67 -25
-31 101 -94 47 -101 70 98 75
-23 70 -62 41 77 -83 69 67
71 99 40 -35 115 -58 -55 -113
-58 -30 19 50 -60 -19 -34 -104
6 36 65 53 -126 -27 59 -112
43 -69 96 31 98 -77 2 72
82 -10 72 -37 -99 55 89 -44
-20 -122 33 -65 93 71 -28 21
-93 4 -120 -42 74 -48 -25 2
-81 -111 -90 21 95 -127 -67 -124
-126 69 40 -33 49 124 -58 43
